data.pth (torch, 5055 bytes, 6 tensors)

l1.weight f4 [8, 54]
00000000: 72b0 f1bd 67a6 243f fcae 913c 9dae 3a3f
00000010: 8676 d23e d58f cc3e 631c 9f3e f446 02bf
00000020: 40b3 4f3c fa9b df3e 6699 383f 8e06 063f
00000030: aaa7 083f 9bf4 ad3e 43dd c73e 6813 b63e
00000040: ac53 1b3f a3b7 10bf fa1d 52be e8e8 5b3f
00000050: d3bf 283f 260b 623f 500b 3dbe 8a7b 3b3f
00000060: d97c f0bc 23ab 163f 033e bebd 7a05 dbbe
00000070: 2005 82bb 097f 173f dba0 0bbf a409 a83e
00000080: dadc 06be a4e7 043f 1914 0ebf cf0a 30bf
00000090: 2001 58be 4b76 043f 2f02 fabe 8ff4 723f
000000a0: 61e9 da3e 5400 973e 8034 a33e 5c1d d73e
000000b0: 1ed9 febd cc31 1abf 10ef 423d a0f0 93bb
000000c0: 1b89 06bf f9aa 35bf 77c6 b1be 89fe 163f
000000d0: b5e6 b33e 46cf 53be 1b4c e0bc 0f76 b93e
000000e0: 05b2 033e 8e6f a93e d348 d23e 4ba5 303f
000000f0: 2330 9b3e 3043 08bf d0f1 3d3c f5a7 253e
00000100: 2b39 263e b2ee ab3e 201f 083f 2b61 c93e
00000110: 0922 91be 4c02 f0bd 8d42 a53e 7e64 08bf
00000120: 630e 80be b844 f33e 2001 4c3e 3ea0 213f
00000130: a397 ca3d d963 673e 1da1 a93e c997 e73e
00000140: ecb9 5cbe a29b bfbe 289c 0bbc 5ff7 4a3e
00000150: 1712 86be 9268 e63e df82 bdbe 8bc9 9e3e
00000160: dede b23e b7b9 10bf bdb6 a7be dcb8 b93e
00000170: 4341 08bf 5838 b53e c305 c73e 49c1 a33d
00000180: ba42 e13e 067b 8abe d285 f1bd 6851 693f
00000190: 3932 993e caea 9d3d 86fa 803d 3d4c 083d
000001a0: ed17 8ebe 2309 54be 1f91 693e 0f58 903e
000001b0: 5b22 2f3f 4e27 e9bd 6427 0f3f 9eb2 d4bd
000001c0: 9282 d0bd f8d0 3dbe 30e3 d7bc 1066 2e3c
000001d0: c4e2 4c3f 4029 60bd a00f 96bb 5cb0 463d
000001e0: 9a95 29bd 853a 68be a04d aebb 43d3 edbd
000001f0: a4ec f8bc fb81 bebd 4c5c 8f3d b575 bebd
00000200: 3cbe b7bd 6bfb 093c c1f9 eabd 87e7 ccbd
00000210: 18ed 313e 20e0 d13d 76a3 05bd fa47 5bbd
00000220: beaf de3e c065 b73b 270a 803d d2df b33c
00000230: 02c3 69bd 90e1 f93d b8ca 67bd 25dc 433f
00000240: 08ee 49bd e8d0 00be 5c0f 063d 24c6 d7bc
00000250: c07d c83c 2847 98bc 30bc fbbd a092 a43c
00000260: bce2 2b3f 7f5d 8fbd 93b1 6a3a b4e5 533f
00000270: cd76 1fbe b82f 78bd 985f 69bc 6c62 60bd
00000280: 8e5b a6be 2a6b c93d 8483 483d 2c5d af3e
00000290: 3bd2 4fba 949c 193f 2b6c 49be 71ed 7bbe
000002a0: 952c b4bc 5404 113f 885d f1bc 14e6 aa3e
000002b0: f8ba 0b3f c798 113f 9fab 2ebe 4aad c43e
000002c0: 8ed3 01be 9d75 8b3e 4e69 b9bd d557 053f
000002d0: 18ce d9be 8e4f 55be ec36 f73e 4727 91be
000002e0: a297 c9bd e1e9 9bbe dca6 3fbe 8ba6 f4bd
000002f0: e6ff 0bbd 72ab e33e 408c 923d 7d93 013f
00000300: 3207 1dbf 7985 bebe d16a fdbd 94c6 403f
00000310: 60ca a0be 883b 3cbf f04c be3e a1c8 b83e
00000320: 9c78 1a3f 6621 5f3f a80d 0c3f e370 b83e
00000330: a959 5abe ee38 53be 5436 f8bd 8492 583f
00000340: ab79 66be aa4b 91bd 8c06 92be 9ecc 91be
00000350: 2430 d3be b5e2 f0bd 563f 063f b92a d73d
00000360: 931f c13e dd06 fa3e 35e2 b63e 51e8 72be
00000370: 9e61 d83e 93f1 06bf aae0 71be 895c 823f
00000380: 58df f93e 3d2b 61bd 4bd9 8abe 2dbc 02be
00000390: a527 073f 2e07 8abe 04f1 193f 4368 993e
000003a0: e979 f33e 0624 8d3f b590 493e 8f62 d83e
000003b0: 6697 d83e 3388 e23e be99 053e 48c3 1c3f
000003c0: b21a 6d3d 0016 c93e 3b21 8f3e 3753 403f
000003d0: 2487 d83e df02 5fbe a656 d13e e385 05bf
000003e0: f19b 463e db18 a6be 8afd 97be dcae 1b3f
000003f0: 5b50 313f d99d 79bd 4d49 6a3f 2986 343f
-0.118012324 0.6431641 0.017783634 0.7292269 0.4110605 0.39953485 0.31076345 -0.50889516
0.012677014 0.43673688 0.7210907 0.5235375 0.53380835 0.33975682 0.39035997 0.3556168
0.6067455 -0.5653021 -0.20519248 0.8590226 0.659177 0.8829826 -0.18461347 0.7323538
-0.029356407 0.58854884 -0.092891715 -0.42777616 -0.003967896 0.59178215 -0.5454232 0.32819855
-0.13170186 0.51915956 -0.55499417 -0.6876649 -0.21094179 0.51743 -0.4882979 0.94904417
0.4275618 0.29492438 0.31875992 0.42014587 -0.124437556 -0.60232234 0.04759127 -0.0045147687
-0.52552956 -0.7096401 -0.3472173 0.5898214 0.35136953 -0.20684537 -0.02738004 0.36222884
0.12860878 0.33092922 0.41071185 0.6900222 0.30310163 -0.5322752 0.011593297 0.16177352
0.16232745 0.33580548 0.53172493 0.39331946 -0.2834628 -0.11719188 0.32277337 -0.5327834
-0.25010976 0.47513366 0.19922304 0.63135135 0.09892204 0.22596683 0.33130732 0.4523299
-0.21555299 -0.37423426 -0.008521117 0.19820927 -0.26185676 0.45001656 -0.3701391 0.3101314
0.3493566 -0.5653338 -0.32756606 0.3627385 -0.5322458 0.3539455 0.38871583 0.079958506
0.4399622 -0.27046984 -0.11793102 0.9113984 0.2992113 0.07710798 0.062977836 0.03327583
-0.2775263 -0.2070661 0.22809266 0.28192183 0.684118 -0.1138445 0.5591948 -0.10385631
-0.10181154 -0.18536747 -0.026353449 0.010644451 0.80033517 -0.05472684 -0.0045794994 0.048508033
-0.041402437 -0.22678573 -0.005319312 -0.116125606 -0.030386277 -0.093021356 0.07000026 -0.092997946
-0.08971831 0.008421759 -0.11473418 -0.10005098 0.173756 0.102478266 -0.03262659 -0.05353544
0.43493456 0.0055968463 0.062519364 0.021957312 -0.05707074 0.12201226 -0.056589812 0.7650779
-0.04929927 -0.12579691 0.03272949 -0.026339598 0.024474025 -0.018588617 -0.12291753 0.020089447
0.67142844 -0.07000255 0.0008952852 0.82772374 -0.15572663 -0.060592383 -0.014243983 -0.054781362
-0.32491726 0.09834893 0.048953548 0.34250772 -0.000792775 0.60004544 -0.19670169 -0.24602295
-0.021993915 0.5664723 -0.029463544 0.3337866 0.54582167 0.56873745 -0.17057656 0.3841346
-0.12678358 0.2723817 -0.090532884 0.52087146 -0.4254005 -0.20831129 0.4828409 -0.2835028
-0.09843375 -0.30451873 -0.18715996 -0.11945828 -0.03417959 0.4446674 0.07155657 0.50615674
-0.61339104 -0.37211207 -0.12373889 0.75303006 -0.314044 -0.7352834 0.37168074 0.36090568
0.60340285 0.87160337 0.5470834 0.36023626 -0.21323265 -0.20627186 -0.12119737 0.84598565
-0.2250735 -0.0709451 -0.2852062 -0.28476423 -0.41247666 -0.11761991 0.5244039 0.105061956
0.37719402 0.4883336 0.35719457 -0.23721434 0.42261976 -0.52712363 -0.23620859 1.018449
0.4880321 -0.054972876 -0.27118906 -0.12767096 0.5279487 -0.26958603 0.60133386 0.29962358
0.47553948 1.1026618 0.19684108 0.42262694 0.42303008 0.44244537 0.13046929 0.61235476
0.057886787 0.39274597 0.2795504 0.75126976 0.42290604 -0.21778439 0.4088642 -0.5215742
0.19395424 -0.32440838 -0.29685622 0.6081369 0.6926324 -0.06094155 0.915181 0.7051721

l1.bias f4 [8]
00000000: 5636 1a3f 8a48 083f 34cf 7fbd eaa2 273f
00000010: f965 9e3f 81be 293f e692 0d3f 70bf 303f
0.6023916 0.53235686 -0.062453464 0.6548296 1.237487 0.6630631 0.55302274 0.6904211

l2.weight f4 [8, 8]
00000000: 2363 2dbf cf63 e93e ee87 07be bb5c 303f
00000010: 8ddb 093f de2c 86bf b07f 0abf fba5 85bf
00000020: f984 3d3e aa94 4dbe 3109 90bf d1d2 3cbd
00000030: caf4 833f fd60 a8bf 620a 4fbf b9f8 2c3f
00000040: 0dd2 ce3d 0372 21bf e603 d4be 498a b63f
00000050: 8a62 703f a896 c33f 7f16 5a3f f90a 65bf
00000060: 2cbd 2dbe cae0 483f 8234 ad3d ca5b 4fbf
00000070: d02c 073f d5b5 483f 4d70 a53f 5d6e f03f
00000080: 1237 cc3f d407 cc3f 7af8 c7bc d002 c03f
00000090: bda9 8f3d 0faf ccbd ddd3 80bf 55c0 48bf
000000a0: b20d 79bf d91e dfbe cae1 ef3d 3bfb d93e
000000b0: 8c11 5e3f 8c12 4c3f 0011 9abc 805a ec3d
000000c0: fe98 e3be d464 54bf ea3f 3e39 da71 2ebd
000000d0: 636e 143f c975 df3f 4dae d83f 54bd b73f
000000e0: 13b1 d73f d7b4 91be f93a 8d3f 8709 8c3e
000000f0: c995 903f 261b b2be 7c9d 4c3f fa06 35be
-0.67729396 0.4558396 -0.13235447 0.68891495 0.5385063 -1.0482442 -0.54101086 -1.0441278
0.18507756 -0.20076242 -1.1252805 -0.046099488 1.0309079 -1.3154598 -0.8087522 0.6756702
0.10098658 -0.63064593 -0.41409224 1.4260951 0.9390036 1.5280352 0.85190576 -0.8946987
-0.16966695 0.78468 0.08457281 -0.80999434 0.52802753 0.78402454 1.2924896 1.878368
1.5954306 1.5939889 -0.024410475 1.5000858 0.07014797 -0.09994327 -1.0064656 -0.78418475
-0.9728652 -0.43578222 0.11712988 0.42574486 0.86745524 0.797158 -0.018806934 0.11540699
-0.4445266 -0.8296635 0.00018143622 -0.042589046 0.57980937 1.745782 1.6928192 1.4354653
1.6850914 -0.28458282 1.1033622 0.2735102 1.1295711 -0.34786338 0.799278 -0.17678443

l2.bias f4 [8]
00000000: e68c 7c3e 85b2 463f ba8c 343e fc38 3f3f
00000010: e488 ed3e 6396 2c3e 03a6 993e f9df a8be
0.24663123 0.7761615 0.17631808 0.74696326 0.46393502 0.16854243 0.3000947 -0.32983378

l3.weight f4 [10, 8]
00000000: f9d9 0fbf 0eb2 aabf 39fa 15c0 04c4 4f3f
00000010: 26ea 21bf c919 f8bf aa74 3a3f 339c a2bf
00000020: 3ba9 b3be f74b 64bf 80d1 173f 4f68 9abe
00000030: 67b5 d1bf d7a6 003f 2e32 c63e bcd4 8cbe
00000040: e88b 90bf 3f82 683f 891b 0ebf c41f 863e
00000050: c5fb 1f3e 4b9f 1cc0 9486 afbf 53b8 9f3e
00000060: b167 41bf df6c 9bbf a95d 23be 68c8 f83e
00000070: 9985 d9bf e66f 903e 0aa3 1a3f 97f2 1cc0
00000080: 5dbe bbbe ba51 c33f ed10 d1bf 4f2b a43e
00000090: cbec b0bf f394 493e e7db 4f3e 9166 8dbf
000000a0: ccfc 9abf 5454 cfbf 8c06 fdbe b416 273f
000000b0: 79b5 453f 5774 c4bd 2cdc 12bf cf35 eabf
000000c0: acda 1cbf bad0 d0bf d55f f33e 16c2 8abf
000000d0: 4cd1 fc3e a5d4 0ec0 5fdd e1bf dc06 db3e
000000e0: 1768 bfbd 2d28 a4be e7ee 71bf ff3b 0e3d
000000f0: 653d b7bf 2c5a a43c b0dd 443e dac6 433f
00000100: f8e3 58bf 4b10 b1bf 8703 123f deaa 01bf
00000110: 9e59 46be 61c2 76bf 4c57 c9bd 9c34 d03e
00000120: 7c6d 653f 0beb 063e 8ecd 8d3e 2fbe f3bd
00000130: 4de3 b43e 868f 00bf 0e57 d9bf 8d82 8ebf
-0.56191975 -1.3335588 -2.3433974 0.8115847 -0.6324791 -1.9382869 0.72834265 -1.2703918
-0.3509005 -0.89178413 0.59304047 -0.30157706 -1.6383485 0.5025458 0.3871016 -0.27506053
-1.1292696 0.9082374 -0.55510765 0.2619611 0.15623386 -2.4472225 -1.3712945 0.31195316
-0.75548846 -1.21426 -0.15953697 0.48590398 -1.6993896 0.28210372 0.6040503 -2.4523065
-0.36668673 1.5259316 -1.633329 0.32064292 -1.3822263 0.19685726 0.2029873 -1.1046926
-1.2108397 -1.619761 -0.49419057 0.6526902 0.7723003 -0.095925026 -0.57367206 -1.8297671
-0.61271167 -1.6313698 0.47534052 -1.084048 0.4937843 -2.2317288 -1.7645682 0.4277867
-0.093460254 -0.32061902 -0.9450516 0.034725185 -1.4315611 0.020062529 0.19225192 0.764753
-0.8472285 -1.3833097 0.5703663 -0.5065135 -0.19370124 -0.9639035 -0.09831104 0.40665138
0.89620185 0.131756 0.27695888 -0.11901509 0.35329667 -0.50219 -1.6979692 -1.1133591

l3.bias f4 [10]
00000000: 5c04 95bc b201 9a3c 5de0 5c3e 53dd 843e
00000010: ba06 d23e 254a c53e 37b0 d5bc d648 1bbe
00000020: 7f37 adbe 34aa 3a3e
-0.018190555 0.018799637 0.21569963 0.25950107 0.41020757 0.3853313 -0.026085002 -0.15164503
-0.33831403 0.1822899
